MaaXBoard-OSM93-Demo_Suite_v2.1-A1/dms/models/iris_landmark_quant.tflite (tflite, 893192 bytes, 134 tensors)

Conv2D i1 [64, 3, 3, 3]
000000 43 36 41 0d f8 08 1e fd 18 fe fe 13 88 81 c0 cf
       67 54 65 13 -8 8 30 -3 24 -2 -2 19 -120 -127 -64 -49
000010 c6 f4 0f 0f 08 df dd f4 f9 00 0f e4 2b 1c 0b 37
       -58 -12 15 15 8 -33 -35 -12 -7 0 15 -28 43 28 11 55
000020 2a cf 19 07 e9 32 2a 04 4f 46 ff 42 2a 81 e5 bf
       42 -49 25 7 -23 50 42 4 79 70 -1 66 42 -127 -27 -65
000030 90 d5 c1 98 da db 30 27 48 0f 1c 43 e3 20 15 48
       -112 -43 -63 -104 -38 -37 48 39 72 15 28 67 -29 32 21 72
000040 5d 7d 1f 79 7f e2 3d 29 ef f8 ff da 0e 02 c7 ec
       93 125 31 121 127 -30 61 41 -17 -8 -1 -38 14 2 -57 -20
000050 c8 1d 40 6a 19 2e 53 0d f8 3d 17 68 6c 31 3f 7f
       -56 29 64 106 25 46 83 13 -8 61 23 104 108 49 63 127
000060 22 22 57 d1 d3 fa f2 cf e9 c4 b9 e3 50 34 18 22
       34 34 87 -47 -45 -6 -14 -49 -23 -60 -71 -29 80 52 24 34
000070 18 fb 00 f5 eb 7f 5b 23 5b 35 15 14 0f f9 2f 16
       24 -5 0 -11 -21 127 91 35 91 53 21 20 15 -7 47 22
000080 07 1e 05 f0 06 03 fb 1e 2a 52 ef d5 35 22 f9 31
       7 30 5 -16 6 3 -5 30 42 82 -17 -43 53 34 -7 49
000090 e2 17 3b af 81 fc f0 ad 26 f3 f7 47 ba c8 4c ca
       -30 23 59 -81 -127 -4 -16 -83 38 -13 -9 71 -70 -56 76 -54
0000a0 c3 43 08 ed 1c d3 92 f4 0e ec 0f c9 e1 1e ab 81
       -61 67 8 -19 28 -45 -110 -12 14 -20 15 -55 -31 30 -85 -127
0000b0 02 f8 f8 2a d2 e9 14 ca d4 fc fb ef 0f 69 44 0b
       2 -8 -8 42 -46 -23 20 -54 -44 -4 -5 -17 15 105 68 11
0000c0 7f 76 1d 01 0c 03 5e 40 fb 74 69 2f 05 0d 10 2a
       127 118 29 1 12 3 94 64 -5 116 105 47 5 13 16 42
0000d0 01 02 0e 1c 07 f4 01 06 10 2b 23 a6 e1 f7 dd 0c
       1 2 14 28 7 -12 1 6 16 43 35 -90 -31 -9 -35 12
0000e0 00 d2 33 38 81 f2 18 e1 2b 3b da 18 0e b9 04 08
       0 -46 51 56 -127 -14 24 -31 43 59 -38 24 14 -71 4 8
0000f0 e2 03 05 14 25 07 21 37 0f e8 03 fa 21 37 0b 43
       -30 3 5 20 37 7 33 55 15 -24 3 -6 33 55 11 67

conv2d_prelu/add;conv2d_prelu/Relu;conv2d_prelu/Neg_1;conv2d_prelu/Relu_1;conv2d_prelu/mul i1 [1, 1, 64] scale=0.007393819 zero_point=0
000000 59 01 18 08 43 e2 58 38 3e 1f 60 f4 70 3d cd eb
       0.6580499 0.007393819 0.17745166 0.05915055 0.49538586 -0.22181456 0.65065604 0.41405386 0.45841676 0.22920838 0.7098066 -0.08872583 0.8281077 0.45102295 -0.37708476 -0.15527019
000010 2a d9 4e 20 5c 2d 34 0d 30 04 1c f5 c3 1e 28 fc
       0.31054038 -0.28835893 0.57671785 0.2366022 0.68023133 0.33272186 0.38447857 0.09611964 0.3549033 0.029575275 0.20702693 -0.081332006 -0.45102295 0.22181456 0.29575276 -0.029575275
000020 05 33 55 42 75 02 0b 51 62 60 6a 33 5d 43 36 4a
       0.036969095 0.37708476 0.6284746 0.48799205 0.8650768 0.014787638 0.081332006 0.5988993 0.72459424 0.7098066 0.7837448 0.37708476 0.68762517 0.49538586 0.3992662 0.54714257
000030 27 4b 4c ff e8 26 1a 7f ff 6c f8 f6 24 e3 0b 4e
       0.28835893 0.5545364 0.56193024 -0.007393819 -0.17745166 0.28096512 0.19223928 0.939015 -0.007393819 0.7985324 -0.05915055 -0.07393819 0.26617748 -0.21442075 0.081332006 0.57671785

Conv2D_3 i1 [32, 1, 1, 64]
000000 9c cf 16 f4 50 0b cd 2b f0 05 e7 27 03 16 b4 05
       -100 -49 22 -12 80 11 -51 43 -16 5 -25 39 3 22 -76 5
000010 2a fc 23 d3 c6 eb 81 df 37 04 0b 4f 24 0b 95 ca
       42 -4 35 -45 -58 -21 -127 -33 55 4 11 79 36 11 -107 -54
000020 08 e9 1d b6 16 db fa 98 d6 e3 41 bb fa 50 27 d0
       8 -23 29 -74 22 -37 -6 -104 -42 -29 65 -69 -6 80 39 -48
000030 e3 ee b6 eb b8 db fc 0d cf 2d 0d d5 cb e9 03 23
       -29 -18 -74 -21 -72 -37 -4 13 -49 45 13 -43 -53 -23 3 35
000040 26 ac e7 e8 09 c6 da ce e6 d3 cd ed dd e5 db 12
       38 -84 -25 -24 9 -58 -38 -50 -26 -45 -51 -19 -35 -27 -37 18
000050 ea 06 db f2 cb 81 e7 d7 f0 06 1f 0b 48 eb ba fc
       -22 6 -37 -14 -53 -127 -25 -41 -16 6 31 11 72 -21 -70 -4
000060 d6 1b 0c b0 0e f0 d8 02 cd 16 c2 0c 33 ee d5 2e
       -42 27 12 -80 14 -16 -40 2 -51 22 -62 12 51 -18 -43 46
000070 ce f0 e1 12 1a 40 e4 fd 27 02 08 28 f1 e9 14 de
       -50 -16 -31 18 26 64 -28 -3 39 2 8 40 -15 -23 20 -34
000080 14 fe 0b 1c 08 1e ec 05 03 fb 1f e4 0b 15 df f4
       20 -2 11 28 8 30 -20 5 3 -5 31 -28 11 21 -33 -12
000090 1a 01 1a 81 13 f3 16 04 10 0b 1b 1a 8e 3c 02 0b
       26 1 26 -127 19 -13 22 4 16 11 27 26 -114 60 2 11
0000a0 29 01 0f 0e e1 08 1a fc e6 d5 0a db fe f6 18 01
       41 1 15 14 -31 8 26 -4 -26 -43 10 -37 -2 -10 24 1
0000b0 ed fd d6 83 cf a6 1b 0b 06 07 24 fc f8 fd f1 0f
       -19 -3 -42 -125 -49 -90 27 11 6 7 36 -4 -8 -3 -15 15
0000c0 3b 35 5a 59 0f 6c 15 40 15 22 45 10 f5 02 07 d7
       59 53 90 89 15 108 21 64 21 34 69 16 -11 2 7 -41
0000d0 15 5b 24 b6 00 15 2a 23 02 69 02 f2 4f 20 eb 6a
       21 91 36 -74 0 21 42 35 2 105 2 -14 79 32 -21 106
0000e0 7f 25 f2 28 05 5a e3 03 08 03 fc d6 06 e6 1b 3f
       127 37 -14 40 5 90 -29 3 8 3 -4 -42 6 -26 27 63
0000f0 05 e0 fc 00 d0 4d 64 0a 4d e1 07 5f ff 51 50 19
       5 -32 -4 0 -48 77 100 10 77 -31 7 95 -1 81 80 25

conv2d_1_prelu/add;conv2d_1_prelu/Relu;conv2d_1_prelu/Neg_1;conv2d_1_prelu/Relu_1;conv2d_1_prelu/mul i1 [1, 1, 32] scale=0.0084652025 zero_point=0
000000 40 ed 59 14 eb ef f7 cf 60 61 4d db 28 eb 19 14
       0.54177296 -0.16083884 0.753403 0.16930404 -0.17776926 -0.14390844 -0.07618682 -0.41479492 0.81265944 0.8211247 0.6518206 -0.31321248 0.3386081 -0.17776926 0.21163006 0.16930404
000010 6b 0a 3f 55 df e9 fc 23 36 f6 de fa 1e 45 7f cc
       0.9057767 0.08465202 0.53330773 0.7195422 -0.27935168 -0.19469966 -0.03386081 0.29628208 0.45712093 -0.08465202 -0.28781688 -0.050791215 0.25395608 0.584099 1.0750808 -0.44019052

depthwise i1 [1, 3, 3, 32]
000000 e8 41 11 3e 7f e1 11 ee 0b 1a bb d5 f1 57 25 f9
       -24 65 17 62 127 -31 17 -18 11 26 -69 -43 -15 87 37 -7
000010 0b 8a 55 d1 0b 7f 48 f3 db 19 20 e6 0e 0e 7f 84
       11 -118 85 -47 11 127 72 -13 -37 25 32 -26 14 14 127 -124
000020 35 68 6d 00 51 ef 7f 87 1f 2a ec df 60 22 20 f4
       53 104 109 0 81 -17 127 -121 31 42 -20 -33 96 34 32 -12
000030 ed 0f 3b aa 53 f4 9f 29 f2 24 27 b7 f7 37 38 20
       -19 15 59 -86 83 -12 -97 41 -14 36 39 -73 -9 55 56 32
000040 df 24 74 1a 4b 16 40 c6 41 5f 81 81 7f 55 d9 f5
       -33 36 116 26 75 22 64 -58 65 95 -127 -127 127 85 -39 -11
000050 12 fb 3b bb 32 d3 21 1b c8 07 2a d2 29 77 21 e3
       18 -5 59 -69 50 -45 33 27 -56 7 42 -46 41 119 33 -29
000060 81 fc 7f 7f cb 81 2f f6 aa b7 e6 ef b3 13 12 81
       -127 -4 127 127 -53 -127 47 -10 -86 -73 -26 -17 -77 19 18 -127
000070 5f f9 75 fd 4a 36 3f d7 81 cd a2 65 1b 0f 27 81
       95 -7 117 -3 74 54 63 -41 -127 -51 -94 101 27 15 39 -127
000080 1e cb 21 34 c2 de d7 81 fa 1e ba ac 34 9f a8 f2
       30 -53 33 52 -62 -34 -41 -127 -6 30 -70 -84 52 -97 -88 -14
000090 ab d5 c2 fd 7f 01 81 81 f2 da f5 6c 20 e4 dc 3c
       -85 -43 -62 -3 127 1 -127 -127 -14 -38 -11 108 32 -28 -36 60
0000a0 e1 81 d1 5c b6 7a 31 a1 71 40 40 60 ec b9 7f 0f
       -31 -127 -47 92 -74 122 49 -95 113 64 64 96 -20 -71 127 15
0000b0 ac 15 97 0c 30 27 f3 f5 1e 81 59 7f 7f 81 eb f9
       -84 21 -105 12 48 39 -13 -11 30 -127 89 127 127 -127 -21 -7
0000c0 ab 24 cb 6c b5 da e3 3b 81 81 55 43 a5 30 c5 ee
       -85 36 -53 108 -75 -38 -29 59 -127 -127 85 67 -91 48 -59 -18
0000d0 7f 7f df 18 3c 12 96 7f b0 11 81 70 d6 68 d7 d7
       127 127 -33 24 60 18 -106 127 -80 17 -127 112 -42 104 -41 -41
0000e0 bb 3f d7 2d 82 3f 0c ed d0 98 db 8d bc 81 ca 0e
       -69 63 -41 45 -126 63 12 -19 -48 -104 -37 -115 -68 -127 -54 14
0000f0 e5 fc 29 55 38 a0 30 b0 df c4 de 53 31 01 c1 58
       -27 -4 41 85 56 -96 48 -80 -33 -60 -34 83 49 1 -63 88

Conv2D_4 i1 [64, 1, 1, 32]
000000 d1 c0 7f 0a fa 57 b7 1f 0f 2f 1f fa 20 1a f6 b7
       -47 -64 127 10 -6 87 -73 31 15 47 31 -6 32 26 -10 -73
000010 e7 ed bd 02 e1 07 e7 01 de f8 04 1e 0a b8 e8 f5
       -25 -19 -67 2 -31 7 -25 1 -34 -8 4 30 10 -72 -24 -11
000020 38 b6 54 34 ae 4c 07 4d 05 f7 ee 2b e4 e4 13 e2
       56 -74 84 52 -82 76 7 77 5 -9 -18 43 -28 -28 19 -30
000030 f1 be e2 1f e7 06 e5 0f d5 cb d8 1e 14 81 ab 1e
       -15 -66 -30 31 -25 6 -27 15 -43 -53 -40 30 20 -127 -85 30
000040 1d fa 55 2a a1 0a f9 97 01 24 18 fa 9d 2c 38 c2
       29 -6 85 42 -95 10 -7 -105 1 36 24 -6 -99 44 56 -62
000050 e2 b6 c1 0f 32 e5 0a dd fd c6 26 7f 49 d8 22 2b
       -30 -74 -63 15 50 -27 10 -35 -3 -58 38 127 73 -40 34 43
000060 ee 2b 05 a6 1e 48 34 2c 1b d8 17 1d 6c d7 d5 0c
       -18 43 5 -90 30 72 52 44 27 -40 23 29 108 -41 -43 12
000070 0b e7 f3 5b e6 1a 23 f7 04 4f 21 df da 07 81 02
       11 -25 -13 91 -26 26 35 -9 4 79 33 -33 -38 7 -127 2
000080 57 16 0c 56 9c d7 4c 12 fa 81 f8 ca e6 ec ed eb
       87 22 12 86 -100 -41 76 18 -6 -127 -8 -54 -26 -20 -19 -21
000090 36 d2 00 22 fe e7 d0 f3 32 e1 33 7d ce 20 e4 59
       54 -46 0 34 -2 -25 -48 -13 50 -31 51 125 -50 32 -28 89
0000a0 05 12 c2 ba d4 5b cf 63 ee 1c ca 07 7f 00 e3 3c
       5 18 -62 -70 -44 91 -49 99 -18 28 -54 7 127 0 -29 60
0000b0 40 25 21 f1 d6 b1 18 ec 06 45 b3 d7 90 39 5f 0a
       64 37 33 -15 -42 -79 24 -20 6 69 -77 -41 -112 57 95 10
0000c0 9e 2b 25 ed e2 bc 9f 48 81 dd 4d ea dd 4a c0 c9
       -98 43 37 -19 -30 -68 -97 72 -127 -35 77 -22 -35 74 -64 -55
0000d0 a0 6c 14 f2 c3 eb c2 dd 95 f6 f5 09 1e 55 f0 57
       -96 108 20 -14 -61 -21 -62 -35 -107 -10 -11 9 30 85 -16 87
0000e0 3f 49 a0 1b ac fb 21 c0 db b4 f8 38 e5 29 44 5f
       63 73 -96 27 -84 -5 33 -64 -37 -76 -8 56 -27 41 68 95
0000f0 76 0b ee 3e 42 f6 81 13 54 c3 73 4e 0e 38 ff 47
       118 11 -18 62 66 -10 -127 19 84 -61 115 78 14 56 -1 71

add__xeno_compat__1_prelu/add;add__xeno_compat__1_prelu/Relu;add__xeno_compat__1_prelu/Neg_1;add__xeno_compat__1_prelu/Relu_1;add__xeno_compat__1_prelu/mul i1 [1, 1, 64] scale=0.0070035188 zero_point=0
000000 1a c5 d8 e0 e6 db 20 1c 2d 7f e8 f3 d3 ef f3 1e
       0.18209149 -0.41320762 -0.28014076 -0.2241126 -0.18209149 -0.25913018 0.2241126 0.19609852 0.31515834 0.88944685 -0.16808444 -0.091045745 -0.31515834 -0.119059816 -0.091045745 0.21010557
000010 13 eb d5 07 f0 4d cf d3 0f de d7 40 f7 d1 f2 ee
       0.13306686 -0.1470739 -0.3011513 0.04902463 -0.1120563 0.53927094 -0.34317243 -0.31515834 0.105052784 -0.23811963 -0.28714427 0.4482252 -0.063031666 -0.32916537 -0.09804926 -0.12606333
000020 fd c3 d1 02 d0 03 ec c6 09 c6 fb b8 3a 57 f9 28
       -0.021010555 -0.42721465 -0.32916537 0.0140070375 -0.3361689 0.021010555 -0.14007038 -0.40620407 0.063031666 -0.40620407 -0.035017595 -0.5042533 0.40620407 0.60930616 -0.04902463 0.28014076
000030 fd 2b fd 12 f6 b3 e8 bc f8 f5 22 0e d0 f4 21 e0
       -0.021010555 0.3011513 -0.021010555 0.12606333 -0.07003519 -0.53927094 -0.16808444 -0.47623926 -0.05602815 -0.077038705 0.23811963 0.09804926 -0.3361689 -0.08404222 0.23111612 -0.2241126

Conv2D_5 i1 [32, 1, 1, 64]
000000 4d 1d ee df 1f f4 f4 e2 4d b4 d8 c4 81 e8 ec 18
       77 29 -18 -33 31 -12 -12 -30 77 -76 -40 -60 -127 -24 -20 24
000010 42 1b 86 db 18 d1 09 37 07 15 20 d0 fd f6 d8 fc
       66 27 -122 -37 24 -47 9 55 7 21 32 -48 -3 -10 -40 -4
000020 f8 02 07 f5 4e e5 e7 19 f9 c6 85 21 04 0b d9 50
       -8 2 7 -11 78 -27 -25 25 -7 -58 -123 33 4 11 -39 80
000030 33 a6 1a b2 62 41 e1 f2 2c f2 18 27 ef 27 29 fa
       51 -90 26 -78 98 65 -31 -14 44 -14 24 39 -17 39 41 -6
000040 08 d1 da 1a f1 03 ef 1e ed 04 05 c2 38 05 ff 0f
       8 -47 -38 26 -15 3 -17 30 -19 4 5 -62 56 5 -1 15
000050 f5 d7 22 d9 fa cc d4 0a 61 cc 1d 0a ba 5f 81 00
       -11 -41 34 -39 -6 -52 -44 10 97 -52 29 10 -70 95 -127 0
000060 df 14 e6 ef fb e6 fb 57 f6 ff fe d8 04 3f 22 d1
       -33 20 -26 -17 -5 -26 -5 87 -10 -1 -2 -40 4 63 34 -47
000070 22 16 cc d7 1d 0e f4 17 f6 f1 e0 e7 ee 25 f6 f5
       34 22 -52 -41 29 14 -12 23 -10 -15 -32 -25 -18 37 -10 -11
000080 08 d6 eb 09 af 05 f2 bc ce 39 08 ef 14 fb 28 d9
       8 -42 -21 9 -81 5 -14 -68 -50 57 8 -17 20 -5 40 -39
000090 df 0f 03 e1 e5 0d da 07 23 ee b4 f9 81 c0 ae f9
       -33 15 3 -31 -27 13 -38 7 35 -18 -76 -7 -127 -64 -82 -7
0000a0 f4 0a 07 fc f0 eb f5 ff fb ef f9 f0 ee 07 df 08
       -12 10 7 -4 -16 -21 -11 -1 -5 -17 -7 -16 -18 7 -33 8
0000b0 a6 e6 08 f2 1a be df e9 0b 1b d1 99 fc d6 1c f9
       -90 -26 8 -14 26 -66 -33 -23 11 27 -47 -103 -4 -42 28 -7
0000c0 f9 8d 5f 05 7f 30 e8 68 b2 6f 29 c9 37 66 e6 07
       -7 -115 95 5 127 48 -24 104 -78 111 41 -55 55 102 -26 7
0000d0 4c df 36 ab 0f d0 c1 18 ce e5 08 32 e7 f9 18 3b
       76 -33 54 -85 15 -48 -63 24 -50 -27 8 50 -25 -7 24 59
0000e0 d4 1d ce 04 01 00 76 e3 1d d1 39 63 24 ee 2c f2
       -44 29 -50 4 1 0 118 -29 29 -47 57 99 36 -18 44 -14
0000f0 05 2e f4 f4 cb c3 31 39 6c 75 e3 03 f2 c1 f1 dc
       5 46 -12 -12 -53 -61 49 57 108 117 -29 3 -14 -63 -15 -36

conv2d_3_prelu/add;conv2d_3_prelu/Relu;conv2d_3_prelu/Neg_1;conv2d_3_prelu/Relu_1;conv2d_3_prelu/mul i1 [1, 1, 32] scale=0.0048892717 zero_point=0
000000 f8 a8 1e ed d6 cf 95 c1 65 0a dc 81 20 0d 05 19
       -0.039114174 -0.43025592 0.14667815 -0.09289616 -0.20534942 -0.23957431 -0.52315205 -0.3080241 0.49381644 0.048892718 -0.17601378 -0.6209375 0.1564567 0.06356053 0.024446359 0.12223179
000010 a7 46 42 dd 2f 01 95 f7 be e1 50 eb 04 f3 94 2e
       -0.43514517 0.342249 0.32269192 -0.1711245 0.22979577 0.0048892717 -0.52315205 -0.044003446 -0.32269192 -0.15156743 0.39114174 -0.10267471 0.019557087 -0.06356053 -0.52804136 0.2249065

depthwise_1 i1 [1, 3, 3, 32]
000000 22 fc 35 ca ea 58 97 ea fa 30 4b ec e2 81 1d 25
       34 -4 53 -54 -22 88 -105 -22 -6 48 75 -20 -30 -127 29 37
000010 0f 2f 81 dd cd 3b 5b c8 d8 1b 32 76 7f 8b 67 52
       15 47 -127 -35 -51 59 91 -56 -40 27 50 118 127 -117 103 82
000020 18 e8 3c f3 f5 56 43 ed 1b fb 7f c7 81 18 41 45
       24 -24 60 -13 -11 86 67 -19 27 -5 127 -57 -127 24 65 69
000030 0a 39 3c ff d7 75 e1 fd c0 15 ed f7 3b a6 07 1a
       10 57 60 -1 -41 117 -31 -3 -64 21 -19 -9 59 -90 7 26
000040 2b 2e 0a 7f 64 7f b4 17 45 f9 70 ef 4d 18 1d 2f
       43 46 10 127 100 127 -76 23 69 -7 112 -17 77 24 29 47
000050 d6 48 14 27 d8 5e 2a 4a 00 31 ef 31 38 92 04 d8
       -42 72 20 39 -40 94 42 74 0 49 -17 49 56 -110 4 -40
000060 eb ea 7f 3d 7f 38 93 a2 07 d7 54 bf 79 f5 c7 1c
       -21 -22 127 61 127 56 -109 -94 7 -41 84 -65 121 -11 -57 28
000070 1b 0f e8 e5 9c e8 7f 81 12 81 e2 7f 7f 85 7f f3
       27 15 -24 -27 -100 -24 127 -127 18 -127 -30 127 127 -123 127 -13
000080 ec 1e 48 d5 15 14 db 81 15 f4 f6 38 93 29 bd 21
       -20 30 72 -43 21 20 -37 -127 21 -12 -10 56 -109 41 -67 33
000090 ef da 07 7f 16 a5 5c 2e e9 b3 08 91 42 b4 48 18
       -17 -38 7 127 22 -91 92 46 -23 -77 8 -111 66 -76 72 24
0000a0 7f 81 e7 46 ba 8f 81 a4 49 0a 7b b6 42 f6 38 69
       127 -127 -25 70 -70 -113 -127 -92 73 10 123 -74 66 -10 56 105
0000b0 7f 7f 60 32 60 64 29 30 81 52 0b ff da 81 4b 1e
       127 127 96 50 96 100 41 48 -127 82 11 -1 -38 -127 75 30
0000c0 cf 27 3a 3b 41 d0 3c dd db 98 f6 81 eb 33 b1 81
       -49 39 58 59 65 -48 60 -35 -37 -104 -10 -127 -21 51 -79 -127
0000d0 7d 02 3d c9 81 e0 5f ea 36 ed 81 59 c2 93 ee 81
       125 2 61 -55 -127 -32 95 -22 54 -19 -127 89 -62 -109 -18 -127
0000e0 c8 40 b6 dd 04 7d e5 ef 7f 81 3a 2a 4e 0a 81 a0
       -56 64 -74 -35 4 125 -27 -17 127 -127 58 42 78 10 -127 -96
0000f0 67 c9 0a d8 4b 81 fe 06 f5 05 35 f6 e4 a3 dd be
       103 -55 10 -40 75 -127 -2 6 -11 5 53 -10 -28 -93 -35 -66

Conv2D_6 i1 [64, 1, 1, 32]
000000 08 e6 3a 1e 7f c2 f4 0b e7 16 02 db 1c 1c 25 17
       8 -26 58 30 127 -62 -12 11 -25 22 2 -37 28 28 37 23
000010 d2 f5 d8 f2 42 52 17 fa f8 4f 0b de d1 d0 14 18
       -46 -11 -40 -14 66 82 23 -6 -8 79 11 -34 -47 -48 20 24
000020 4c 0b b5 ee 0b 68 ec 01 2c 21 81 49 f6 df df eb
       76 11 -75 -18 11 104 -20 1 44 33 -127 73 -10 -33 -33 -21
000030 a4 41 af 14 08 17 e0 a1 c3 ee e2 47 d2 76 11 4e
       -92 65 -81 20 8 23 -32 -95 -61 -18 -30 71 -46 118 17 78
000040 56 01 16 e4 f2 fd 1a 0a ec 28 08 f8 2b e9 d6 ba
       86 1 22 -28 -14 -3 26 10 -20 40 8 -8 43 -23 -42 -70
000050 d4 1c 6c 20 b6 ac f0 7f 49 e4 fd 1d 0c fb e1 d5
       -44 28 108 32 -74 -84 -16 127 73 -28 -3 29 12 -5 -31 -43
000060 3a 1a 38 02 0b 4d 24 0d ea 16 69 91 c5 90 0f ca
       58 26 56 2 11 77 36 13 -22 22 105 -111 -59 -112 15 -54
000070 21 2e f0 17 f1 f3 4f 20 4b 09 02 04 d5 81 dd 14
       33 46 -16 23 -15 -13 79 32 75 9 2 4 -43 -127 -35 20
000080 c2 f0 1e 22 e1 fb 1a 2a aa 0e 01 f2 27 e2 f4 45
       -62 -16 30 34 -31 -5 26 42 -86 14 1 -14 39 -30 -12 69
000090 1c 98 f3 cd 29 f6 1b 09 81 ff bf 18 d1 e0 0f ea
       28 -104 -13 -51 41 -10 27 9 -127 -1 -65 24 -47 -32 15 -22
0000a0 08 7f cf de f5 2d 46 17 2c 92 01 ba c5 48 22 af
       8 127 -49 -34 -11 45 70 23 44 -110 1 -70 -59 72 34 -81
0000b0 b6 60 16 81 3a e4 83 ca 0c 0a f9 5c 10 2c ab da
       -74 96 22 -127 58 -28 -125 -54 12 10 -7 92 16 44 -85 -38
0000c0 9c 01 e4 cd 15 12 04 05 ec 0b 0b f6 ef 18 3c 21
       -100 1 -28 -51 21 18 4 5 -20 11 11 -10 -17 24 60 33
0000d0 0d 81 ee f5 3e 20 12 e6 c6 0f fa d4 f1 e6 26 f1
       13 -127 -18 -11 62 32 18 -26 -58 15 -6 -44 -15 -26 38 -15
0000e0 9a 46 65 d8 c0 03 54 3b 64 3e 1c c9 1d 0e 50 e0
       -102 70 101 -40 -64 3 84 59 100 62 28 -55 29 14 80 -32
0000f0 32 df f2 f9 57 27 19 18 20 ed 81 e0 66 a4 a4 c0
       50 -33 -14 -7 87 39 25 24 32 -19 -127 -32 102 -92 -92 -64

add_1__xeno_compat__1_prelu/add;add_1__xeno_compat__1_prelu/Relu;add_1__xeno_compat__1_prelu/Neg_1;add_1__xeno_compat__1_prelu/Relu_1;add_1__xeno_compat__1_prelu/mul i1 [1, 1, 64] scale=0.012143878 zero_point=0
000000 0c e9 e4 ef f7 0a 01 f7 24 07 ef ed d8 08 ed cb
       0.14572653 -0.2793092 -0.34002858 -0.20644593 -0.109294906 0.12143879 0.012143878 -0.109294906 0.43717963 0.085007146 -0.20644593 -0.2307337 -0.48575515 0.097151026 -0.2307337 -0.64362556
000010 27 0e 29 37 ec f5 f4 e8 16 2c 33 f2 04 18 03 f4
       0.47361127 0.17001429 0.497899 0.6679133 -0.24287757 -0.13358267 -0.14572653 -0.29145306 0.26716533 0.53433067 0.6193378 -0.17001429 0.048575513 0.29145306 0.036431633 -0.14572653
000020 f3 0e d1 1a 14 12 01 f0 ff d6 19 19 4b 7f e2 ff
       -0.15787041 0.17001429 -0.5707623 0.31574082 0.24287757 0.21858981 0.012143878 -0.19430205 -0.012143878 -0.5100429 0.30359694 0.30359694 0.91079086 1.5422726 -0.36431634 -0.012143878
000030 36 f1 e1 0f f3 27 de f9 08 f2 f3 09 17 d6 e5 e5
       0.6557694 -0.18215817 -0.37646022 0.18215817 -0.15787041 0.47361127 -0.41289186 -0.085007146 0.097151026 -0.17001429 -0.15787041 0.109294906 0.2793092 -0.5100429 -0.3278847 -0.3278847

Conv2D_7 i1 [32, 1, 1, 64]
000000 84 10 4b 04 25 c6 da d3 05 62 34 2a c9 7f c3 46
       -124 16 75 4 37 -58 -38 -45 5 98 52 42 -55 127 -61 70
000010 1c 3d 0d a9 d7 4e 39 28 3f e3 48 0a cd 11 e1 f9
       28 61 13 -87 -41 78 57 40 63 -29 72 10 -51 17 -31 -7
000020 ec d5 31 36 ea 39 dc 97 bf 16 2a f3 ea 3a eb e9
       -20 -43 49 54 -22 57 -36 -105 -65 22 42 -13 -22 58 -21 -23
000030 cd 35 fa 98 f3 43 e6 69 33 f7 31 57 1e 59 f5 de
       -51 53 -6 -104 -13 67 -26 105 51 -9 49 87 30 89 -11 -34
000040 09 44 51 2c 5e 05 ff 5f de fb e6 1b 0d 57 ee 3c
       9 68 81 44 94 5 -1 95 -34 -5 -26 27 13 87 -18 60
000050 5f 4d f5 18 79 47 69 12 1c 22 f6 53 ea 26 3d 47
       95 77 -11 24 121 71 105 18 28 34 -10 83 -22 38 61 71
000060 41 bf d4 f8 1d fa 01 07 d6 25 53 2a d7 3a 7f 13
       65 -65 -44 -8 29 -6 1 7 -42 37 83 42 -41 58 127 19
000070 1a 72 e0 0d 53 0b 3c fd 68 20 1c 27 fd e2 15 28
       26 114 -32 13 83 11 60 -3 104 32 28 39 -3 -30 21 40
000080 24 ef 4a 0b 41 15 15 4d 13 3d f7 f8 f8 41 28 f6
       36 -17 74 11 65 21 21 77 19 61 -9 -8 -8 65 40 -10
000090 25 20 08 ae e6 ea f3 24 36 2d 2c f0 81 35 0b 3b
       37 32 8 -82 -26 -22 -13 36 54 45 44 -16 -127 53 11 59
0000a0 08 ed 21 f9 2f 18 42 f4 1e ed ed f3 e1 e1 1b d1
       8 -19 33 -7 47 24 66 -12 30 -19 -19 -13 -31 -31 27 -47
0000b0 90 e7 cd b8 f8 fe 16 5b 20 5a fb 22 f8 04 dd 0b
       -112 -25 -51 -72 -8 -2 22 91 32 90 -5 34 -8 4 -35 11
0000c0 ee 99 ab fd 48 14 0f 12 29 fb 10 fe 02 1c fe e4
       -18 -103 -85 -3 72 20 15 18 41 -5 16 -2 2 28 -2 -28
0000d0 27 fc 22 b6 0a fe 1e 2f e1 d7 14 0c e9 20 e8 f9
       39 -4 34 -74 10 -2 30 47 -31 -41 20 12 -23 32 -24 -7
0000e0 0b e4 34 12 18 a4 1c fa 26 12 eb e1 03 de 1f fd
       11 -28 52 18 24 -92 28 -6 38 18 -21 -31 3 -34 31 -3
0000f0 dd c8 05 81 e5 25 e6 23 22 0a f4 c8 35 15 d7 c8
       -35 -56 5 -127 -27 37 -26 35 34 10 -12 -56 53 21 -41 -56

conv2d_5_prelu/add;conv2d_5_prelu/Relu;conv2d_5_prelu/Neg_1;conv2d_5_prelu/Relu_1;conv2d_5_prelu/mul i1 [1, 1, 32] scale=0.0059985192 zero_point=0
000000 1a 03 17 4c d7 20 c5 47 ee ed 1b ec 18 b7 10 09
       0.1559615 0.017995559 0.13796595 0.45588747 -0.24593928 0.19195262 -0.35391262 0.42589486 -0.107973345 -0.11397187 0.16196002 -0.11997038 0.14396447 -0.4378919 0.09597631 0.053986672
000010 25 5f 12 d5 58 28 f4 28 02 81 eb d1 c2 d9 0b fc
       0.22194521 0.5698593 0.107973345 -0.25793633 0.5278697 0.23994076 -0.071982235 0.23994076 0.0119970385 -0.761812 -0.1259689 -0.28193042 -0.3719082 -0.23394226 0.06598371 -0.023994077

depthwise_2 i1 [1, 3, 3, 32]
000000 d7 c6 0f f6 98 cf 55 64 71 16 1f 21 f2 ad cf f6
       -41 -58 15 -10 -104 -49 85 100 113 22 31 33 -14 -83 -49 -10
000010 da ed 35 07 e5 65 1d af 0b 07 11 d6 49 81 5d 4e
       -38 -19 53 7 -27 101 29 -81 11 7 17 -42 73 -127 93 78
000020 23 0a ff 15 f8 91 bb 7f 81 13 60 d7 ef 85 b3 23
       35 10 -1 21 -8 -111 -69 127 -127 19 96 -41 -17 -123 -77 35
000030 27 ef d0 ed f8 50 8c fb d1 bb c4 94 3f bd d5 1c
       39 -17 -48 -19 -8 80 -116 -5 -47 -69 -60 -108 63 -67 -43 28
000040 f7 81 12 ef 7f 92 81 0e 91 16 81 fe 0f 9b cd c2
       -9 -127 18 -17 127 -110 -127 14 -111 22 -127 -2 15 -101 -51 -62
000050 e3 d9 51 8a 45 2a 86 6a f7 55 e5 b7 19 e4 4f 81
       -29 -39 81 -118 69 42 -122 106 -9 85 -27 -73 25 -28 79 -127
000060 24 fe 3a 7f b7 bc 2f 8e 25 fc 20 4c 83 9a 42 4e
       36 -2 58 127 -73 -68 47 -114 37 -4 32 76 -125 -102 66 78
000070 24 81 ef 14 00 da d5 81 7f 14 ce 81 7f 90 cc e6
       36 -127 -17 20 0 -38 -43 -127 127 20 -50 -127 127 -112 -52 -26
000080 32 12 fb 21 5f 08 f0 13 42 ea 29 3f f0 ca e1 40
       50 18 -5 33 95 8 -16 19 66 -22 41 63 -16 -54 -31 64
000090 09 c6 81 1a eb 1e f3 10 b7 1c 81 ae 7c bb 9d f8
       9 -58 -127 26 -21 30 -13 16 -73 28 -127 -82 124 -69 -99 -8
0000a0 f2 0a f7 06 6b f7 e4 af 13 98 c3 d2 7f 81 f2 b8
       -14 10 -9 6 107 -9 -28 -81 19 -104 -61 -46 127 -127 -14 -72
0000b0 cf 8b 24 f1 f3 22 f7 e5 6e 4f af c8 26 d8 ba bb
       -49 -117 36 -15 -13 34 -9 -27 110 79 -81 -56 38 -40 -70 -69
0000c0 28 f5 c8 cd ed 13 d9 83 d1 c4 cb 0d bd a3 7f 6d
       40 -11 -56 -51 -19 19 -39 -125 -47 -60 -53 13 -67 -93 127 109
0000d0 48 a8 5f e2 43 81 2e a8 2a 3d dc a1 28 b4 81 9b
       72 -88 95 -30 67 -127 46 -88 42 61 -36 -95 40 -76 -127 -101
0000e0 dd dd 81 9a 57 6f 6c 1b 1f 7f d7 7f 12 93 10 76
       -35 -35 -127 -102 87 111 108 27 31 127 -41 127 18 -109 16 118
0000f0 81 c1 de c8 fc af 72 fd 67 7f d4 d4 22 e2 ef c1
       -127 -63 -34 -56 -4 -81 114 -3 103 127 -44 -44 34 -30 -17 -63

Conv2D_8 i1 [64, 1, 1, 32]
000000 c0 07 7f 54 e4 cf ed 0c 0f f7 ea e8 2d 02 04 cb
       -64 7 127 84 -28 -49 -19 12 15 -9 -22 -24 45 2 4 -53
000010 4f 23 fe 10 b6 0a ef fd 01 f4 1a 15 eb 0c ea fc
       79 35 -2 16 -74 10 -17 -3 1 -12 26 21 -21 12 -22 -4
000020 b5 32 f7 33 cf e7 b3 1d a4 0d 2b a7 68 81 41 06
       -75 50 -9 51 -49 -25 -77 29 -92 13 43 -89 104 -127 65 6
000030 45 fe 39 e1 b3 09 72 be 38 42 3f d5 c7 ac 08 b1
       69 -2 57 -31 -77 9 114 -66 56 66 63 -43 -57 -84 8 -79
000040 e7 e7 44 d3 0a c9 bc cf 06 0c c5 ce 1d 0d d1 e4
       -25 -25 68 -45 10 -55 -68 -49 6 12 -59 -50 29 13 -47 -28
000050 ed 0c ef 0c dc ed 7f e2 cf 07 26 13 d8 fa 31 13
       -19 12 -17 12 -36 -19 127 -30 -49 7 38 19 -40 -6 49 19
000060 12 d6 50 ee ed 2d c1 11 1f 10 d6 81 ec df f6 c3
       18 -42 80 -18 -19 45 -63 17 31 16 -42 -127 -20 -33 -10 -61
000070 d5 3d 5b e8 e9 0e 40 0d 1b ee 59 f7 a2 f9 e0 ca
       -43 61 91 -24 -23 14 64 13 27 -18 89 -9 -94 -7 -32 -54
000080 29 0e f8 fb 3b 0e f4 c6 f8 da ca f7 f5 eb 81 b3
       41 14 -8 -5 59 14 -12 -58 -8 -38 -54 -9 -11 -21 -127 -77
000090 c5 12 06 f2 2b dd f9 c8 16 f3 dd b6 23 d8 fd 1a
       -59 18 6 -14 43 -35 -7 -56 22 -13 -35 -74 35 -40 -3 26
0000a0 ea ee 60 40 e4 e2 34 1e 0b 23 0a fb 1e 5a e3 88
       -22 -18 96 64 -28 -30 52 30 11 35 10 -5 30 90 -29 -120
0000b0 02 f7 31 1e 19 a4 7f b5 0a e7 3f 1a d3 e2 24 f1
       2 -9 49 30 25 -92 127 -75 10 -25 63 26 -45 -30 36 -15
0000c0 c5 16 48 e1 d2 18 36 c0 06 07 46 1d 7f 2e 63 1d
       -59 22 72 -31 -46 24 54 -64 6 7 70 29 127 46 99 29
0000d0 30 0e 22 0c e2 57 d7 3f 09 19 23 26 fd 18 1a 12
       48 14 34 12 -30 87 -41 63 9 25 35 38 -3 24 26 18
0000e0 52 11 dc af d4 7f cf ac d4 fd 9a e6 94 40 33 20
       82 17 -36 -81 -44 127 -49 -84 -44 -3 -102 -26 -108 64 51 32
0000f0 bf 5c 0b e5 01 6a 01 ae b3 da 21 4e b5 61 de 41
       -65 92 11 -27 1 106 1 -82 -77 -38 33 78 -75 97 -34 65

add_2__xeno_compat__1_prelu/add;add_2__xeno_compat__1_prelu/Relu;add_2__xeno_compat__1_prelu/Neg_1;add_2__xeno_compat__1_prelu/Relu_1;add_2__xeno_compat__1_prelu/mul i1 [1, 1, 64] scale=0.007169841 zero_point=0
000000 28 a2 e1 27 01 42 35 ff 04 c1 17 3d d3 d6 2a f2
       0.28679365 -0.67396504 -0.22226506 0.2796238 0.007169841 0.4732095 0.38000157 -0.007169841 0.028679363 -0.45169997 0.16490634 0.4373603 -0.32264283 -0.3011333 0.3011333 -0.10037777
000010 21 08 f6 25 fa 29 37 0f a1 b5 b8 50 f5 3a e9 1e
       0.23660475 0.057358727 -0.07169841 0.26528412 -0.043019045 0.29396346 0.39434126 0.10754761 -0.6811349 -0.5377381 -0.51622856 0.5735873 -0.07886825 0.41585076 -0.16490634 0.21509522
000020 04 d7 ff 13 2c fd f1 29 43 01 e1 be b9 6a 1a 2f
       0.028679363 -0.29396346 -0.007169841 0.13622698 0.315473 -0.021509523 -0.10754761 0.29396346 0.48037934 0.007169841 -0.22226506 -0.4732095 -0.5090587 0.76000315 0.18641587 0.33698252
000030 d7 08 fe 0e 38 26 08 c4 2a 7f fd 01 20 11 d7 05
       -0.29396346 0.057358727 -0.014339682 0.10037777 0.40151107 0.27245396 0.057358727 -0.43019044 0.3011333 0.9105698 -0.021509523 0.007169841 0.2294349 0.1218873 -0.29396346 0.035849206

Conv2D_9 i1 [32, 1, 1, 64]
000000 f1 fc e5 05 d2 ec 1c f7 7a f1 04 da 0e a6 d0 e9
       -15 -4 -27 5 -46 -20 28 -9 122 -15 4 -38 14 -90 -48 -23
000010 de da db 12 0c f4 0c f1 1c 29 f8 df 1f e8 30 d2
       -34 -38 -37 18 12 -12 12 -15 28 41 -8 -33 31 -24 48 -46
000020 da 1d e7 e1 03 f6 cb 16 2a 24 23 d8 18 7f ff 16
       -38 29 -25 -31 3 -10 -53 22 42 36 35 -40 24 127 -1 22
000030 f5 16 11 e7 13 df 02 f7 f4 e3 2d 3f ed 28 05 ff
       -11 22 17 -25 19 -33 2 -9 -12 -29 45 63 -19 40 5 -1
000040 55 d8 3d 1b 0c c8 95 fd ba 25 e8 67 e5 78 cc 19
       85 -40 61 27 12 -56 -107 -3 -70 37 -24 103 -27 120 -52 25
000050 16 7f 10 e6 f9 b6 38 44 3a 2c 39 f0 bf 7f 13 28
       22 127 16 -26 -7 -74 56 68 58 44 57 -16 -65 127 19 40
000060 ff f0 e3 0a 07 ef 07 b4 04 87 d0 ca 0c e0 0b 05
       -1 -16 -29 10 7 -17 7 -76 4 -121 -48 -54 12 -32 11 5
000070 f1 05 aa 89 f9 f1 20 46 15 67 17 20 05 3c 08 13
       -15 5 -86 -119 -7 -15 32 70 21 103 23 32 5 60 8 19
000080 4e b7 3e 61 c9 18 e5 4c fb cf 3a 11 6e 03 f7 e9
       78 -73 62 97 -55 24 -27 76 -5 -49 58 17 110 3 -9 -23
000090 be 27 04 d6 21 3f 0c 04 d3 d6 0d db 30 da 00 a5
       -66 39 4 -42 33 63 12 4 -45 -42 13 -37 48 -38 0 -91
0000a0 48 f7 59 bf 12 ee dd ee 23 b4 41 2a 9e 21 ab e8
       72 -9 89 -65 18 -18 -35 -18 35 -76 65 42 -98 33 -85 -24
0000b0 c4 e3 81 fb ba 2b ab f0 07 00 2a 20 bc 2e d5 18
       -60 -29 -127 -5 -70 43 -85 -16 7 0 42 32 -68 46 -43 24
0000c0 02 e4 b3 0c 00 29 12 c2 0d 0b 2b ec b4 d8 0d b3
       2 -28 -77 12 0 41 18 -62 13 11 43 -20 -76 -40 13 -77
0000d0 d3 ec e3 f9 e9 de 1e 0b fb 22 e9 85 29 e4 3c fd
       -45 -20 -29 -7 -23 -34 30 11 -5 34 -23 -123 41 -28 60 -3
0000e0 b7 d8 02 24 0a e4 d8 29 32 f2 2d 0b 79 38 f0 3e
       -73 -40 2 36 10 -28 -40 41 50 -14 45 11 121 56 -16 62
0000f0 09 98 2d 05 42 0b eb a5 de c6 2f 31 ca 7f bc 33
       9 -104 45 5 66 11 -21 -91 -34 -58 47 49 -54 127 -68 51

conv2d_7_prelu/add;conv2d_7_prelu/Relu;conv2d_7_prelu/Neg_1;conv2d_7_prelu/Relu_1;conv2d_7_prelu/mul i1 [1, 1, 32] scale=0.0063852 zero_point=0
000000 7f 09 fe c1 01 fa ff 41 02 24 27 d4 61 fd 0e 46
       0.8109204 0.0574668 -0.0127704 -0.4022676 0.0063852 -0.038311202 -0.0063852 0.41503802 0.0127704 0.2298672 0.24902281 -0.28094882 0.61936444 -0.019155601 0.0893928 0.44696403
000010 f4 fa 12 fd 01 1a fa b9 d2 0e 05 c9 0d d0 0c b1
       -0.076622404 -0.038311202 0.1149336 -0.019155601 0.0063852 0.16601521 -0.038311202 -0.4533492 -0.2937192 0.0893928 0.031926002 -0.351186 0.083007604 -0.30648962 0.076622404 -0.50443083

depthwise_3 i1 [1, 3, 3, 32]
000000 43 6b 51 b0 25 a8 3a f8 e5 c5 ae 06 96 f0 0e 00
       67 107 81 -80 37 -88 58 -8 -27 -59 -82 6 -106 -16 14 0
000010 2b 08 7f 0c 16 01 45 e6 cd 69 21 52 3c d1 60 7f
       43 8 127 12 22 1 69 -26 -51 105 33 82 60 -47 96 127
000020 f7 a7 ce fb 33 77 73 c9 38 b2 e5 8c f9 eb 7f 09
       -9 -89 -50 -5 51 119 115 -55 56 -78 -27 -116 -7 -21 127 9
000030 81 de 31 e1 97 54 a9 c1 27 30 77 7f 58 d2 e4 00
       -127 -34 49 -31 -105 84 -87 -63 39 48 119 127 88 -46 -28 0
000040 d8 b5 d3 30 fa 23 7f cb 14 bb 22 03 f5 2a ec 1a
       -40 -75 -45 48 -6 35 127 -53 20 -69 34 3 -11 42 -20 26
000050 07 43 99 41 11 40 81 f9 0c e7 34 7e 22 81 f3 0f
       7 67 -103 65 17 64 -127 -7 12 -25 52 126 34 -127 -13 15
000060 50 f9 31 ce d3 e1 51 c3 27 f2 81 35 10 81 8e 61
       80 -7 49 -50 -45 -31 81 -61 39 -14 -127 53 16 -127 -114 97
000070 38 b4 31 af 0e 3a 01 bf 81 6b d6 16 6f 6b fe 4f
       56 -76 49 -81 14 58 1 -65 -127 107 -42 22 111 107 -2 79
000080 1a ba 2d b0 7c 87 6e 81 7f 23 c0 1f 1e e7 3e c5
       26 -70 45 -80 124 -121 110 -127 127 35 -64 31 30 -25 62 -59
000090 03 42 24 5f e9 7f d1 81 1c f4 34 f7 d2 33 11 cd
       3 66 36 95 -23 127 -47 -127 28 -12 52 -9 -46 51 17 -51
0000a0 a0 81 51 2f 8d ed 6b d4 38 d9 dd 7f 32 7f b2 bc
       -96 -127 81 47 -115 -19 107 -44 56 -39 -35 127 50 127 -78 -68
0000b0 52 81 1c 81 5b 3b 95 0f f7 81 4d 03 c3 e2 1b d2
       82 -127 28 -127 91 59 -107 15 -9 -127 77 3 -61 -30 27 -46
0000c0 52 35 82 1e b6 7f 0b d7 fa 7f 99 bc 18 a4 ce 5e
       82 53 -126 30 -74 127 11 -41 -6 127 -103 -68 24 -92 -50 94
0000d0 5b 4a 08 f4 81 15 e4 5c e7 fb 81 30 17 17 81 e3
       91 74 8 -12 -127 21 -28 92 -25 -5 -127 48 23 23 -127 -29
0000e0 03 51 81 81 7f 16 6a c6 2b 1b ab a9 e7 41 c3 01
       3 81 -127 -127 127 22 106 -58 43 27 -85 -87 -25 65 -61 1
0000f0 11 12 16 ee 56 5b c7 28 be 08 94 fc 81 22 1e 89
       17 18 22 -18 86 91 -57 40 -66 8 -108 -4 -127 34 30 -119

Conv2D_10 i1 [64, 1, 1, 32]
000000 ff d5 21 09 60 2f 6e 11 28 b1 b9 37 1e fd 47 ec
       -1 -43 33 9 96 47 110 17 40 -79 -71 55 30 -3 71 -20
000010 8c e1 d9 29 03 25 07 81 db d9 e1 63 3b e5 fe 0b
       -116 -31 -39 41 3 37 7 -127 -37 -39 -31 99 59 -27 -2 11
000020 1b f8 f9 f7 47 f4 10 d2 26 db f7 fe c5 0f 0f ed
       27 -8 -7 -9 71 -12 16 -46 38 -37 -9 -2 -59 15 15 -19
000030 1c f4 14 dd ef 27 c0 b1 ae 08 f6 7f ea 19 14 0a
       28 -12 20 -35 -17 39 -64 -79 -82 8 -10 127 -22 25 20 10
000040 0d f7 35 59 04 12 d9 27 08 81 2a fc a3 46 06 f1
       13 -9 53 89 4 18 -39 39 8 -127 42 -4 -93 70 6 -15
000050 db ef df 12 0b f6 48 1d 1a 03 26 14 61 b8 ef 45
       -37 -17 -33 18 11 -10 72 29 26 3 38 20 97 -72 -17 69
000060 fa 02 05 2a f6 fc 1d d5 20 e8 0d 16 23 e5 31 00
       -6 2 5 42 -10 -4 29 -43 32 -24 13 22 35 -27 49 0
000070 17 da 03 14 0e 3a ac ec e2 14 e7 7f fd f5 06 04
       23 -38 3 20 14 58 -84 -20 -30 20 -25 127 -3 -11 6 4
000080 db fc 14 e8 9e 5c e6 00 30 81 71 3a 24 9a 9d 23
       -37 -4 20 -24 -98 92 -26 0 48 -127 113 58 36 -102 -99 35
000090 0c f9 3e f5 3a dd bb e5 fd 3e 47 cc 37 cd 4f ec
       12 -7 62 -11 58 -35 -69 -27 -3 62 71 -52 55 -51 79 -20
0000a0 00 e5 85 cd 1f 12 fa 07 c4 e5 fe aa 3b dd fb 3b
       0 -27 -123 -51 31 18 -6 7 -60 -27 -2 -86 59 -35 -5 59
0000b0 92 19 d0 15 08 f8 05 46 e0 e9 30 34 dd fd 7f 77
       -110 25 -48 21 8 -8 5 70 -32 -23 48 52 -35 -3 127 119
0000c0 1f ff 1a f5 81 01 fb 0d e1 0a 07 00 f4 d2 d9 16
       31 -1 26 -11 -127 1 -5 13 -31 10 7 0 -12 -46 -39 22
0000d0 2e f1 fd f8 fe eb 09 1a 0e e3 10 cf ed 0f 13 eb
       46 -15 -3 -8 -2 -21 9 26 14 -29 16 -49 -19 15 19 -21
0000e0 81 43 f7 04 0b 18 d6 2c d4 1b 19 ea 18 de f0 93
       -127 67 -9 4 11 24 -42 44 -44 27 25 -22 24 -34 -16 -109
0000f0 e1 d5 fd 09 f6 dd 58 01 16 3a e5 d7 21 d3 4e c5
       -31 -43 -3 9 -10 -35 88 1 22 58 -27 -41 33 -45 78 -59

add_3__xeno_compat__1_prelu/add;add_3__xeno_compat__1_prelu/Relu;add_3__xeno_compat__1_prelu/Neg_1;add_3__xeno_compat__1_prelu/Relu_1;add_3__xeno_compat__1_prelu/mul i1 [1, 1, 64] scale=0.009851863 zero_point=0
000000 f7 ff 17 ea f3 f5 6c e8 3f 38 e5 fe 3c 20 18 f2
       -0.08866677 -0.009851863 0.22659284 -0.21674098 -0.12807421 -0.10837049 1.0640012 -0.23644471 0.62066734 0.5517043 -0.2660003 -0.019703725 0.5911118 0.3152596 0.23644471 -0.13792607
000010 f6 f3 f0 17 f9 11 f9 ee bf d6 c0 d1 f5 5c 0d eb
       -0.098518625 -0.12807421 -0.1576298 0.22659284 -0.068963036 0.16748166 -0.068963036 -0.17733353 -0.6403711 -0.41377825 -0.6305192 -0.46303755 -0.10837049 0.90637136 0.12807421 -0.20688912
000020 10 fe 09 bf 3e 1c e0 ef 35 56 d5 0a 2a 7f f1 64
       0.1576298 -0.019703725 0.08866677 -0.6403711 0.61081547 0.27585214 -0.3152596 -0.16748166 0.5221487 0.8472602 -0.4236301 0.098518625 0.41377825 1.2511866 -0.14777794 0.9851863
000030 13 0a 28 ca 32 41 f5 fd d9 1b 10 29 0b e1 18 55
       0.18718539 0.098518625 0.3940745 -0.5320006 0.49259314 0.6403711 -0.10837049 -0.029555589 -0.38422266 0.2660003 0.1576298 0.40392637 0.10837049 -0.30540773 0.23644471 0.8374083

Conv2D_11 i1 [64, 2, 2, 64]
000000 05 4e df 4d 0d fd 1b 3b 21 00 2e 0d 7f 2f 05 3c
       5 78 -33 77 13 -3 27 59 33 0 46 13 127 47 5 60
000010 f9 29 39 da 09 05 1c 0b 60 53 22 3b 35 e6 ff 33
       -7 41 57 -38 9 5 28 11 96 83 34 59 53 -26 -1 51
000020 49 29 33 3f 2d ee 32 71 03 2a 6e 15 1f 0f 14 09
       73 41 51 63 45 -18 50 113 3 42 110 21 31 15 20 9
000030 36 07 25 05 5b f3 3c 44 3c d7 ec d9 ff fd 30 34
       54 7 37 5 91 -13 60 68 60 -41 -20 -39 -1 -3 48 52
000040 fb 27 df 41 ef e8 0c 26 29 f1 39 03 61 49 d9 37
       -5 39 -33 65 -17 -24 12 38 41 -15 57 3 97 73 -39 55
000050 f5 34 12 eb f4 2a 1b ff 5a 20 2c 20 10 f3 10 20
       -11 52 18 -21 -12 42 27 -1 90 32 44 32 16 -13 16 32
000060 31 3a 1b 32 13 f2 f4 78 09 10 37 1d 22 0b dd f0
       49 58 27 50 19 -14 -12 120 9 16 55 29 34 11 -35 -16
000070 40 f9 21 16 3e e7 18 35 13 da d0 ef 0b fc 1a 0d
       64 -7 33 22 62 -25 24 53 19 -38 -48 -17 11 -4 26 13
000080 1d 29 ec 10 eb ec 25 e3 42 0c 1b e9 07 22 0d 34
       29 41 -20 16 -21 -20 37 -29 66 12 27 -23 7 34 13 52
000090 f9 19 07 f1 15 16 15 0c 71 6f 10 31 3a 01 41 11
       -7 25 7 -15 21 22 21 12 113 111 16 49 58 1 65 17
0000a0 33 26 19 10 29 12 1e 3b 2c 27 12 ef 2f 24 01 1a
       51 38 25 16 41 18 30 59 44 39 18 -17 47 36 1 26
0000b0 ea 0c 16 db 43 ee 40 09 0d e7 16 ff 02 19 31 21
       -22 12 22 -37 67 -18 64 9 13 -25 22 -1 2 25 49 33
0000c0 38 09 f3 11 bb 18 19 ae 48 01 19 fa 01 37 23 4c
       56 9 -13 17 -69 24 25 -82 72 1 25 -6 1 55 35 76
0000d0 10 38 15 21 05 34 06 01 24 0e 05 03 0e 02 1e 05
       16 56 21 33 5 52 6 1 36 14 5 3 14 2 30 5
0000e0 f9 03 f9 f9 ea ff f5 45 1b 4f 15 c2 2c 24 ce e5
       -7 3 -7 -7 -22 -1 -11 69 27 79 21 -62 44 36 -50 -27
0000f0 2a 1f 2a 29 30 01 2b 0c f1 ea ca f9 11 10 0e 11
       42 31 42 41 48 1 43 12 -15 -22 -54 -7 17 16 14 17

conv2d_9_prelu/add;conv2d_9_prelu/Relu;conv2d_9_prelu/Neg_1;conv2d_9_prelu/Relu_1;conv2d_9_prelu/mul i1 [1, 1, 64] scale=0.0056367735 zero_point=0
000000 e7 30 e8 06 dd d7 29 48 5a fb 01 04 81 d0 02 08
       -0.14091934 0.27056512 -0.13528256 0.03382064 -0.19728707 -0.23110771 0.23110771 0.4058477 0.5073096 -0.028183868 0.0056367735 0.022547094 -0.71587026 -0.27056512 0.011273547 0.04509419
000010 13 06 e5 15 58 00 1f 13 dc 2f 10 d6 01 9e d3 6d
       0.1070987 0.03382064 -0.15219289 0.11837225 0.49603608 0.0 0.17473999 0.1070987 -0.20292385 0.26492837 0.09018838 -0.2367445 0.0056367735 -0.5524038 -0.2536548 0.6144083
000020 f8 46 ee 03 e3 09 f6 de 0c bc ef db dd 1e e8 20
       -0.04509419 0.39457414 -0.101461925 0.01691032 -0.16346644 0.050730962 -0.056367736 -0.1916503 0.06764128 -0.3833006 -0.09582515 -0.20856062 -0.19728707 0.1691032 -0.13528256 0.18037675
000030 4e f8 07 f3 e4 d1 f1 35 f6 3b df e7 1c 12 7d 00
       0.43966833 -0.04509419 0.039457414 -0.073278055 -0.15782966 -0.26492837 -0.0845516 0.298749 -0.056367736 0.33256963 -0.18601352 -0.14091934 0.15782966 0.101461925 0.7045967 0.0

depthwise_4 i1 [1, 3, 3, 64]
000000 29 b2 cb 06 ea dd 26 05 d7 96 fb 4f f7 f9 c9 3e
       41 -78 -53 6 -22 -35 38 5 -41 -106 -5 79 -9 -7 -55 62
000010 22 2e 3c 7a c3 47 7f cf cc 34 00 7f 03 81 c1 e0
       34 46 60 122 -61 71 127 -49 -52 52 0 127 3 -127 -63 -32
000020 38 10 2d 98 f1 24 74 7f f8 ed 7f 07 3b 0a 43 e0
       56 16 45 -104 -15 36 116 127 -8 -19 127 7 59 10 67 -32
000030 d9 b8 0f 7f cb 09 d4 a8 3e e9 06 8f 2e db 14 ad
       -39 -72 15 127 -53 9 -44 -88 62 -23 6 -113 46 -37 20 -83
000040 fb 81 85 f9 0b 7f 09 30 d8 4f 4c ec 07 fe 81 7f
       -5 -127 -123 -7 11 127 9 48 -40 79 76 -20 7 -2 -127 127
000050 4f eb 4d 7f a1 f0 3c da ef 35 ba 25 2a e3 9f 7b
       79 -21 77 127 -95 -16 60 -38 -17 53 -70 37 42 -29 -97 123
000060 7b 11 01 29 7f 7f 85 3b 84 2b ef f3 7f f5 1c 1a
       123 17 1 41 127 127 -123 59 -124 43 -17 -13 127 -11 28 26
000070 09 a8 ed 0d 09 19 c2 17 52 db de cc fe 1e 0f 6d
       9 -88 -19 13 9 25 -62 23 82 -37 -34 -52 -2 30 15 109
000080 2e aa a8 00 0f 05 dc 81 eb ce d5 d0 c5 a4 65 bf
       46 -86 -88 0 15 5 -36 -127 -21 -50 -43 -48 -59 -92 101 -65
000090 3b 63 59 52 ae 27 23 f3 0e a8 49 23 a4 62 cd ae
       59 99 89 82 -82 39 35 -13 14 -88 73 35 -92 98 -51 -82
0000a0 5d 51 1e 24 10 61 bc 03 81 c7 c1 f6 12 7f 10 65
       93 81 30 36 16 97 -68 3 -127 -57 -63 -10 18 127 16 101
0000b0 4d ce 48 1c 7f cf 81 f0 22 3e d1 5f 81 38 81 e0
       77 -50 72 28 127 -49 -127 -16 34 62 -47 95 -127 56 -127 -32
0000c0 d7 45 ac d0 32 f9 29 12 02 50 57 ea 3d 25 9d b8
       -41 69 -84 -48 50 -7 41 18 2 80 87 -22 61 37 -99 -72
0000d0 5d fe f6 3c 24 03 e8 45 c3 cc b3 fe f5 83 81 0e
       93 -2 -10 60 36 3 -24 69 -61 -52 -77 -2 -11 -125 -127 14
0000e0 57 a8 91 e7 fb 4d ca 1a e5 08 d0 bb a8 10 f3 ea
       87 -88 -111 -25 -5 77 -54 26 -27 8 -48 -69 -88 16 -13 -22
0000f0 d8 aa c4 df 01 ab 9c d4 69 0a ca d4 85 81 fc fa
       -40 -86 -60 -33 1 -85 -100 -44 105 10 -54 -44 -123 -127 -4 -6

Conv2D_12 i1 [128, 1, 1, 64]
000000 2d df 24 24 e4 07 10 e2 e7 ff 04 01 f8 ff 0f ed
       45 -33 36 36 -28 7 16 -30 -25 -1 4 1 -8 -1 15 -19
000010 be fd e5 d5 13 f0 ed dd 09 f9 fd e1 03 0e f8 09
       -66 -3 -27 -43 19 -16 -19 -35 9 -7 -3 -31 3 14 -8 9
000020 c7 fa 1e fd 15 de 05 41 4e ca 02 25 a5 5b 02 02
       -57 -6 30 -3 21 -34 5 65 78 -54 2 37 -91 91 2 2
000030 fe 28 18 e1 fb 08 2d 45 e3 fe 27 16 1c 81 ff 04
       -2 40 24 -31 -5 8 45 69 -29 -2 39 22 28 -127 -1 4
000040 03 de 1a ff f7 04 07 db 45 1a f3 f2 ed d5 19 01
       3 -34 26 -1 -9 4 7 -37 69 26 -13 -14 -19 -43 25 1
000050 e5 f0 8d e4 d3 06 f7 e5 d8 00 b3 3f ff 28 13 26
       -27 -16 -115 -28 -45 6 -9 -27 -40 0 -77 63 -1 40 19 38
000060 ed da f9 02 52 ec 07 21 03 2a e8 28 20 0c fd 82
       -19 -38 -7 2 82 -20 7 33 3 42 -24 40 32 12 -3 -126
000070 f5 05 07 04 28 7f 3d c0 e1 15 2e db 08 44 ef 04
       -11 5 7 4 40 127 61 -64 -31 21 46 -37 8 68 -17 4
000080 d2 fe ec 13 05 0a d9 45 83 fd 11 ea 29 24 07 09
       -46 -2 -20 19 5 10 -39 69 -125 -3 17 -22 41 36 7 9
000090 fd 1f 69 fd 00 f0 00 25 17 15 53 d6 18 d6 e7 81
       -3 31 105 -3 0 -16 0 37 23 21 83 -42 24 -42 -25 -127
0000a0 26 1c f5 fe db 06 f1 eb 11 02 e5 f0 18 02 ec 44
       38 28 -11 -2 -37 6 -15 -21 17 2 -27 -16 24 2 -20 68
0000b0 ff e9 da 17 ea c7 df 29 05 37 e6 0c e7 18 5d 16
       -1 -23 -38 23 -22 -57 -33 41 5 55 -26 12 -25 24 93 22
0000c0 3e cd 6d fd dd e5 3b 32 e0 01 f1 f3 37 b7 31 0a
       62 -51 109 -3 -35 -27 59 50 -32 1 -15 -13 55 -73 49 10
0000d0 a8 ff 06 97 f9 61 f0 db e8 49 f7 ca 0a 20 4b 81
       -88 -1 6 -105 -7 97 -16 -37 -24 73 -9 -54 10 32 75 -127
0000e0 c2 04 45 02 fc dc cb 0a 58 d8 e7 64 0d 55 ee f5
       -62 4 69 2 -4 -36 -53 10 88 -40 -25 100 13 85 -18 -11
0000f0 2c 5a 13 d9 03 ee 51 2c c1 b3 3e e1 30 15 dc 07
       44 90 19 -39 3 -18 81 44 -63 -77 62 -31 48 21 -36 7

add_4__xeno_compat__1_prelu/add;add_4__xeno_compat__1_prelu/Relu;add_4__xeno_compat__1_prelu/Neg_1;add_4__xeno_compat__1_prelu/Relu_1;add_4__xeno_compat__1_prelu/mul i1 [1, 1, 128] scale=0.006258532 zero_point=0
000000 df 11 04 b4 f7 30 73 4b 4c ca 06 57 2c 29 12 b9
       -0.20653155 0.10639504 0.025034128 -0.47564843 -0.056326788 0.30040953 0.71973115 0.4693899 0.47564843 -0.33796072 0.03755119 0.5444923 0.2753754 0.2565998 0.112653576 -0.44435576
000010 ec d9 f0 f7 d1 16 1d e4 0f 9e a0 d0 46 dc cf e6
       -0.12517063 -0.24408275 -0.10013651 -0.056326788 -0.294151 0.1376877 0.18149742 -0.17523889 0.09387798 -0.61333615 -0.60081905 -0.30040953 0.43809724 -0.22530715 -0.30666807 -0.16272183
000020 d1 32 ff d5 b4 1a f1 0a 35 7f 06 67 c1 24 db fe
       -0.294151 0.3129266 -0.006258532 -0.26911688 -0.47564843 0.16272183 -0.09387798 0.06258532 0.3317022 0.79483354 0.03755119 0.64462876 -0.39428753 0.22530715 -0.23156568 -0.012517064
000030 f3 20 00 39 39 04 8e af ed 2b 06 f7 db f8 4a d7
       -0.081360914 0.20027302 0.0 0.35673633 0.35673633 0.025034128 -0.71347266 -0.5069411 -0.11891211 0.26911688 0.03755119 -0.056326788 -0.23156568 -0.050068256 0.46313137 -0.2565998
000040 00 20 f4 f9 b6 2c e6 a7 e2 5d 41 96 4d a8 04 27
       0.0 0.20027302 -0.07510238 -0.043809723 -0.46313137 0.2753754 -0.16272183 -0.55700934 -0.18775596 0.58204347 0.40680456 -0.6634044 0.48190695 -0.5507508 0.025034128 0.24408275
000050 0e 39 73 0c 20 17 d2 18 1d cb 13 f3 f5 0c 37 2a
       0.087619446 0.35673633 0.71973115 0.07510238 0.20027302 0.14394623 -0.28789246 0.15020476 0.18149742 -0.3317022 0.11891211 -0.081360914 -0.06884385 0.07510238 0.34421927 0.26285833
000060 0c 16 e4 00 1c f2 fd f4 53 13 40 ec fa 26 1b 27
       0.07510238 0.1376877 -0.17523889 0.0 0.17523889 -0.087619446 -0.018775595 -0.07510238 0.5194582 0.11891211 0.40054604 -0.12517063 -0.03755119 0.23782422 0.16898036 0.24408275
000070 f6 fb fb 1b 0e 28 b6 fa f7 ea a4 36 e1 fb 9c f7
       -0.06258532 -0.03129266 -0.03129266 0.16898036 0.087619446 0.25034127 -0.46313137 -0.03755119 -0.056326788 -0.1376877 -0.5757849 0.33796072 -0.19401449 -0.03129266 -0.6258532 -0.056326788

Conv2D_13 i1 [64, 1, 1, 128]
000000 11 24 08 0b 54 fb 24 4f 6c 40 11 01 0f 22 06 55
       17 36 8 11 84 -5 36 79 108 64 17 1 15 34 6 85
000010 45 fb 0b 02 f2 60 0a 0f 26 15 1a 2a d8 21 3a e4
       69 -5 11 2 -14 96 10 15 38 21 26 42 -40 33 58 -28
000020 33 1f 7f 4d 3a e2 0f 29 fa 24 1f 36 62 31 19 f6
       51 31 127 77 58 -30 15 41 -6 36 31 54 98 49 25 -10
000030 46 03 15 3d 22 57 39 df 1e 36 32 06 0b 22 2e 0a
       70 3 21 61 34 87 57 -33 30 54 50 6 11 34 46 10
000040 fd 17 d8 bb 0f d2 fe fa 07 24 10 db dd e6 fd b6
       -3 23 -40 -69 15 -46 -2 -6 7 36 16 -37 -35 -26 -3 -74
000050 b4 11 29 2a e6 f1 3e 17 24 12 fb 13 0f c1 20 1f
       -76 17 41 42 -26 -15 62 23 36 18 -5 19 15 -63 32 31
000060 fc 0e 11 e0 f4 f3 05 fe f9 dc 18 10 f1 04 95 06
       -4 14 17 -32 -12 -13 5 -2 -7 -36 24 16 -15 4 -107 6
000070 ea d8 e2 97 e8 19 20 f7 01 01 dd e2 20 f5 0a fb
       -22 -40 -30 -105 -24 25 32 -9 1 1 -35 -30 32 -11 10 -5
000080 35 31 f1 11 13 12 e7 f6 0e 2e 3d 36 02 30 1e 2e
       53 49 -15 17 19 18 -25 -10 14 46 61 54 2 48 30 46
000090 03 14 16 ff 08 e9 25 3e 31 10 36 0f 24 31 21 f6
       3 20 22 -1 8 -23 37 62 49 16 54 15 36 49 33 -10
0000a0 4d 32 e9 0b 20 02 0f cd 03 1e e7 2f ff cd 16 02
       77 50 -23 11 32 2 15 -51 3 30 -25 47 -1 -51 22 2
0000b0 08 d3 ed d8 e7 29 2e e0 0c 0a dd dc 02 e6 4b 12
       8 -45 -19 -40 -25 41 46 -32 12 10 -35 -36 2 -26 75 18
0000c0 19 43 01 25 51 2d 08 6d 43 70 37 27 3c 55 06 2d
       25 67 1 37 81 45 8 109 67 112 55 39 60 85 6 45
0000d0 02 4e 29 7f f1 5f 35 36 4a 40 12 0b 34 34 52 39
       2 78 41 127 -15 95 53 54 74 64 18 11 52 52 82 57
0000e0 2a 50 50 06 09 33 32 2d 0d 29 46 58 29 cd 15 17
       42 80 80 6 9 51 50 45 13 41 70 88 41 -51 21 23
0000f0 f6 13 2b 3a 16 58 35 09 25 23 44 db 24 17 50 19
       -10 19 43 58 22 88 53 9 37 35 68 -37 36 23 80 25

conv2d_11_prelu/add;conv2d_11_prelu/Relu;conv2d_11_prelu/Neg_1;conv2d_11_prelu/Relu_1;conv2d_11_prelu/mul i1 [1, 1, 64] scale=0.0062421514 zero_point=0
000000 3f 0b a7 9c 2b 15 11 08 3d de a5 06 ca 14 d2 07
       0.39325553 0.068663664 -0.55555147 -0.6242151 0.2684125 0.13108517 0.10611657 0.04993721 0.38077122 -0.21223314 -0.5680358 0.037452906 -0.3370762 0.12484303 -0.28713897 0.04369506
000010 10 ff eb 47 08 16 91 fa f6 b2 03 c1 16 e1 4b 02
       0.09987442 -0.0062421514 -0.13108517 0.44319275 0.04993721 0.13732733 -0.6928788 -0.037452906 -0.062421516 -0.4868878 0.018726453 -0.39325553 0.13732733 -0.19350669 0.46816134 0.012484303
000020 e1 38 8d ec ed b6 c6 db 1e 00 dc 1c 16 aa 39 17
       -0.19350669 0.34956047 -0.7178474 -0.12484303 -0.118600875 -0.4619192 -0.36204478 -0.2309596 0.18726455 0.0 -0.22471745 0.17478023 0.13732733 -0.536825 0.35580263 0.14356948
000030 81 01 b9 24 7b 4b b9 ff f0 c5 f3 f4 ba fe 58 04
       -0.7927532 0.0062421514 -0.44319275 0.22471745 0.7677846 0.46816134 -0.44319275 -0.0062421514 -0.09987442 -0.36828694 -0.08114797 -0.07490581 -0.4369506 -0.012484303 0.5493093 0.024968605

depthwise_5 i1 [1, 3, 3, 64]
000000 eb d3 5a e7 af d9 e7 96 c1 cf fc e9 ff 6c f8 4d
       -21 -45 90 -25 -81 -39 -25 -106 -63 -49 -4 -23 -1 108 -8 77
000010 ee 41 cc 81 c4 fd 81 dc 7f 2c 25 3e 11 07 50 ab
       -18 65 -52 -127 -60 -3 -127 -36 127 44 37 62 17 7 80 -85
000020 7f 15 4e 18 36 81 f9 13 40 da 75 0f 1c c3 e6 2d
       127 21 78 24 54 -127 -7 19 64 -38 117 15 28 -61 -26 45
000030 7f c9 52 10 f3 57 b5 85 eb a7 16 7f 7f f4 d1 37
       127 -55 82 16 -13 87 -75 -123 -21 -89 22 127 127 -12 -47 55
000040 c6 12 12 d6 c4 2d f1 7f b8 fe 1b f6 dc 1a 11 08
       -58 18 18 -42 -60 45 -15 127 -72 -2 27 -10 -36 26 17 8
000050 69 c3 e3 c7 49 51 14 e0 0c 06 bd 24 de d9 19 ce
       105 -61 -29 -57 73 81 20 -32 12 6 -67 36 -34 -39 25 -50
000060 6b dc 14 fc 04 01 f2 21 d5 81 4c 25 d5 d3 79 41
       107 -36 20 -4 4 1 -14 33 -43 -127 76 37 -43 -45 121 65
000070 32 8f e2 9a fb e5 25 b5 b6 00 fa 4c f6 18 1f f8
       50 -113 -30 -102 -5 -27 37 -75 -74 0 -6 76 -10 24 31 -8
000080 58 28 2c 19 ad 49 cc 39 d3 81 df d4 4d fd e8 a1
       88 40 44 25 -83 73 -52 57 -45 -127 -33 -44 77 -3 -24 -95
000090 7f b6 ce 17 7c 58 34 34 c0 7f 59 41 28 1f 81 4b
       127 -74 -50 23 124 88 52 52 -64 127 89 65 40 31 -127 75
0000a0 f5 39 e9 7f 0f 22 e5 06 df e3 3f eb 83 b0 4c 7f
       -11 57 -23 127 15 34 -27 6 -33 -29 63 -21 -125 -80 76 127
0000b0 f8 07 e5 d4 ab f9 7f 22 8f 30 dd bb fb d9 3e 5e
       -8 7 -27 -44 -85 -7 127 34 -113 48 -35 -69 -5 -39 62 94
0000c0 cb 63 7f 81 aa 87 51 6b 81 f9 24 e3 7f ba 49 d2
       -53 99 127 -127 -86 -121 81 107 -127 -7 36 -29 127 -70 73 -46
0000d0 26 01 be d1 cb 30 05 ca a4 b7 fe 9c 03 e4 0f 93
       38 1 -66 -47 -53 48 5 -54 -92 -73 -2 -100 3 -28 15 -109
0000e0 1d a3 db 66 75 e9 25 c3 55 7e e0 65 81 44 38 41
       29 -93 -37 102 117 -23 37 -61 85 126 -32 101 -127 68 56 65
0000f0 94 23 eb b6 c1 52 d4 4c b3 7f cf bb 40 81 15 3c
       -108 35 -21 -74 -63 82 -44 76 -77 127 -49 -69 64 -127 21 60

Conv2D_14 i1 [128, 1, 1, 64]
000000 0f cc ba 15 2c c2 15 d8 31 e4 cd 05 2a 2e b4 fa
       15 -52 -70 21 44 -62 21 -40 49 -28 -51 5 42 46 -76 -6
000010 f8 ff 18 20 a3 54 e6 06 e2 0c fa 25 ff 18 00 f1
       -8 -1 24 32 -93 84 -26 6 -30 12 -6 37 -1 24 0 -15
000020 15 f7 08 03 b9 ef a4 21 d7 08 3d 06 16 bc d1 7f
       21 -9 8 3 -71 -17 -92 33 -41 8 61 6 22 -68 -47 127
000030 2e 42 46 46 a9 e0 f5 e5 2c bd 4d 00 20 42 e1 f5
       46 66 70 70 -87 -32 -11 -27 44 -67 77 0 32 66 -31 -11
000040 0d f2 ce 3d 4c e0 f8 f7 34 04 3d 1a 05 18 81 df
       13 -14 -50 61 76 -32 -8 -9 52 4 61 26 5 24 -127 -33
000050 ce bb eb 11 d0 cb fb 02 15 52 0f 07 f9 c2 e0 f6
       -50 -69 -21 17 -48 -53 -5 2 21 82 15 7 -7 -62 -32 -10
000060 30 47 19 da af f1 09 56 34 ec f1 df de 30 c4 15
       48 71 25 -38 -81 -15 9 86 52 -20 -15 -33 -34 48 -60 21
000070 cb ac ac 4b ff 4a f9 f8 2d e6 34 1d da 68 02 17
       -53 -84 -84 75 -1 74 -7 -8 45 -26 52 29 -38 104 2 23
000080 ec f1 09 26 01 d7 bc e8 27 fe d7 f8 f2 21 ee f7
       -20 -15 9 38 1 -41 -68 -24 39 -2 -41 -8 -14 33 -18 -9
000090 1d f2 e8 fe e8 0d da 23 fc bc 14 03 1e 0a 3d f7
       29 -14 -24 -2 -24 13 -38 35 -4 -68 20 3 30 10 61 -9
0000a0 f8 ed 39 fb 06 eb 0e fd c5 fd 01 da 7f eb 07 1f
       -8 -19 57 -5 6 -21 14 -3 -59 -3 1 -38 127 -21 7 31
0000b0 c4 d2 42 1d e0 04 1b 1d 03 f4 ff 10 36 f0 1f f8
       -60 -46 66 29 -32 4 27 29 3 -12 -1 16 54 -16 31 -8
0000c0 fe c9 81 13 4e 1d 1e df 25 dc bd 2f d0 4b c8 1a
       -2 -55 -127 19 78 29 30 -33 37 -36 -67 47 -48 75 -56 26
0000d0 fb 03 f9 17 c5 02 1f fb 22 14 09 4c 41 26 ce fd
       -5 3 -7 23 -59 2 31 -5 34 20 9 76 65 38 -50 -3
0000e0 fd 0a e3 11 9d 30 de 10 14 eb 1c cf 08 1b 07 fe
       -3 10 -29 17 -99 48 -34 16 20 -21 28 -49 8 27 7 -2
0000f0 30 fd e1 38 06 e2 21 f8 7d ec 43 1c fc 5f eb 01
       48 -3 -31 56 6 -30 33 -8 125 -20 67 28 -4 95 -21 1

add_5__xeno_compat__1_prelu/add;add_5__xeno_compat__1_prelu/Relu;add_5__xeno_compat__1_prelu/Neg_1;add_5__xeno_compat__1_prelu/Relu_1;add_5__xeno_compat__1_prelu/mul i1 [1, 1, 128] scale=0.0074714357 zero_point=0
000000 e7 05 e1 f7 0f 44 16 05 08 02 28 d0 40 0e ec 34
       -0.18678589 0.037357178 -0.2316145 -0.06724292 0.11207154 0.50805765 0.16437158 0.037357178 0.059771486 0.014942871 0.29885742 -0.35862893 0.47817189 0.1046001 -0.14942871 0.38851467
000010 e7 0c 17 f5 e7 04 f7 e8 20 4a 4d 10 01 03 f4 f3
       -0.18678589 0.08965723 0.17184302 -0.08218579 -0.18678589 0.029885743 -0.06724292 -0.17931446 0.23908594 0.55288625 0.5753006 0.11954297 0.0074714357 0.022414308 -0.08965723 -0.09712867
000020 fc 53 fd 3e 0b ab c8 01 cc 7f b8 21 33 2f e4 08
       -0.029885743 0.62012917 -0.022414308 0.463229 0.08218579 -0.63507205 -0.4184004 0.0074714357 -0.38851467 0.9488723 -0.53794336 0.24655738 0.38104323 0.3511575 -0.2092002 0.059771486
000030 02 09 26 38 29 00 22 d7 0a db 12 0d 0c b5 12 00
       0.014942871 0.06724292 0.28391457 0.4184004 0.30632886 0.0 0.25402883 -0.30632886 0.074714355 -0.27644312 0.13448584 0.09712867 0.08965723 -0.5603577 0.13448584 0.0
000040 f9 ed ec 67 e0 e0 fd 2b f9 ab ee e0 db d4 ea 1f
       -0.05230005 -0.14195728 -0.14942871 0.7695579 -0.23908594 -0.23908594 -0.022414308 0.32127175 -0.05230005 -0.63507205 -0.13448584 -0.23908594 -0.27644312 -0.32874316 -0.16437158 0.2316145
000050 0a fe 4b 23 1b 26 f8 f0 12 00 00 e4 e7 f5 d8 38
       0.074714355 -0.014942871 0.5603577 0.26150024 0.20172876 0.28391457 -0.059771486 -0.11954297 0.13448584 0.0 0.0 -0.2092002 -0.18678589 -0.08218579 -0.29885742 0.4184004
000060 00 0b 3e f6 f9 fe fd 0c 10 13 e2 0d d0 f5 ee 18
       0.0 0.08218579 0.463229 -0.074714355 -0.05230005 -0.014942871 -0.022414308 0.08965723 0.11954297 0.14195728 -0.22414307 0.09712867 -0.35862893 -0.08218579 -0.13448584 0.17931446
000070 06 04 f1 36 ea fd 06 e6 0c ea 05 fb fa 09 2f 00
       0.044828616 0.029885743 -0.11207154 0.40345752 -0.16437158 -0.022414308 0.044828616 -0.19425733 0.08965723 -0.16437158 0.037357178 -0.037357178 -0.044828616 0.06724292 0.3511575 0.0

Conv2D_15 i1 [64, 1, 1, 128]
000000 df 11 21 e5 fb 2f 27 eb 43 28 03 fb f5 f2 eb 10
       -33 17 33 -27 -5 47 39 -21 67 40 3 -5 -11 -14 -21 16
000010 fd f2 20 01 03 ff 05 eb ef 3b f3 ef f4 f0 43 fd
       -3 -14 32 1 3 -1 5 -21 -17 59 -13 -17 -12 -16 67 -3
000020 fa ec 03 f8 f1 00 44 08 7f 11 07 12 1f 51 f8 5d
       -6 -20 3 -8 -15 0 68 8 127 17 7 18 31 81 -8 93
000030 06 0e fc 0c 2a 0f 0b 0e 08 e2 39 e7 1c 20 1b f4
       6 14 -4 12 42 15 11 14 8 -30 57 -25 28 32 27 -12
000040 fd f8 e8 fc f3 ef 03 f0 09 ee ef f1 e0 04 f7 07
       -3 -8 -24 -4 -13 -17 3 -16 9 -18 -17 -15 -32 4 -9 7
000050 1b ff 19 07 03 0b fc f4 2e ee 03 f2 ed fc f6 3d
       27 -1 25 7 3 11 -4 -12 46 -18 3 -14 -19 -4 -10 61
000060 f8 01 f0 15 e1 0a 00 fd 23 ff 03 ef 01 d7 11 12
       -8 1 -16 21 -31 10 0 -3 35 -1 3 -17 1 -41 17 18
000070 f5 fd fe ed 10 ee ed 17 fc d8 fc d0 10 21 f0 00
       -11 -3 -2 -19 16 -18 -19 23 -4 -40 -4 -48 16 33 -16 0
000080 33 0b de cb 5c 15 67 0b 24 20 23 29 33 35 60 d1
       51 11 -34 -53 92 21 103 11 36 32 35 41 51 53 96 -47
000090 2d 20 5e 36 01 2d 7f 10 56 f2 22 50 5f 39 29 0f
       45 32 94 54 1 45 127 16 86 -14 34 80 95 57 41 15
0000a0 13 51 08 e5 13 ff 40 cd 1b 17 bd 70 60 ee fe 46
       19 81 8 -27 19 -1 64 -51 27 23 -67 112 96 -18 -2 70
0000b0 49 65 13 69 48 0e 20 cb 43 3e 34 50 04 f8 40 26
       73 101 19 105 72 14 32 -53 67 62 52 80 4 -8 64 38
0000c0 17 19 dd e9 34 09 3e 40 0f d8 02 29 09 24 ce 10
       23 25 -35 -23 52 9 62 64 15 -40 2 41 9 36 -50 16
0000d0 be db d9 00 20 1c ef 35 02 08 26 07 c1 34 f6 e7
       -66 -37 -39 0 32 28 -17 53 2 8 38 7 -63 52 -10 -25
0000e0 e6 12 3f 30 f6 31 d8 dc 3a e7 00 cb 2d e4 f3 09
       -26 18 63 48 -10 49 -40 -36 58 -25 0 -53 45 -28 -13 9
0000f0 44 c2 22 26 73 fc da f0 1c 41 16 11 2a dc 40 f7
       68 -62 34 38 115 -4 -38 -16 28 65 22 17 42 -36 64 -9
